docs/model.onnx (onnx, 22737 bytes, 3 tensors)

conv1.bias f4 [32]
-2.6346989 -0.3600449 -0.26890314 -1.1020548 -3.5716536 -1.8210466 -1.4746149 0.14770874
-1.6424477 -0.52014285 0.34834707 1.0077578 -0.100448176 -1.8414577 -0.9261686 -0.43281746
-1.0112016 0.5357187 -1.6558021 0.22753781 0.22384927 -1.6140225 -2.4998715 -2.1832218
1.3844742 -1.6086568 0.36137268 0.9126813 0.5049438 0.13127005 0.10790789 0.81992185
00000000: e89e 28c0 ce57 b8be acad 89be 2210 8dbf
00000010: f995 64c0 0e18 e9bf 2ec0 bcbf f640 173e
00000020: ba3b d2bf 1528 05bf 8c5a b23e 35fe 803f
00000030: c6b7 cdbd e3b4 ebbf 6319 6dbf 409a ddbe
00000040: 0e6f 81bf dc24 093f 53f1 d3bf acff 683e
00000050: be38 653e 4a98 cebf e5fd 1fc0 e8b9 0bc0
00000060: 7336 b13f 77e8 cdbf d705 b93e 7ba5 693f
00000070: ff43 013f a86b 063e d0fe dc3d 66e6 513f

conv2.bias f4 [64]
-1.5050918 -1.068331 -1.436615 -1.0218718 0.30995783 -0.8831833 -0.16644171 -1.1338794
0.25704074 -0.9253619 -0.7227615 -0.19332342 -0.10563931 1.0829488 0.2514216 -0.30205658
0.024468035 0.1363996 -1.0877272 1.5436667 -0.037118018 -0.46029645 0.6480133 0.20304102
-0.93943274 -1.164087 0.57576853 -1.1954057 -1.1919281 0.6858715 0.10250041 0.33316872
-0.56327665 -0.9085063 0.16418575 0.20672864 -0.22390032 -1.1199635 -1.3892723 0.40023252
-0.7858225 -0.4219048 -0.99217045 -0.4434645 -0.6832243 1.1517565 0.13511464 -0.020345658
-0.800455 -0.31873536 -0.04971482 0.49334857 0.42779356 -0.48074573 0.1973159 0.37222397
0.026746795 -1.3441043 0.14194912 2.0291376 0.5137079 -0.3663489 0.66124 -1.1860805
00000000: d9a6 c0bf 12bf 88bf 00e3 b7bf b2cc 82bf
00000010: cbb2 9e3e 4d18 62bf b26f 2abe f622 91bf
00000020: d89a 833e 84e4 6cbf e606 39bf 93f6 45be
00000030: 6c59 d8bd 119e 8a3f 55ba 803e 29a7 9abe
00000040: 3071 c83c 56ac 0b3e a53a 8bbf df96 c53f
00000050: 1009 18bd faab ebbe 33e4 253f fce9 4f3e
00000060: aa7e 70bf ce00 95bf 9165 133f 0e03 99bf
00000070: 1a91 98bf 4695 2f3f bceb d13d 1795 aa3e
00000080: e632 10bf de93 68bf 4f20 283e acb0 533e
00000090: 2046 65be f75a 8fbf add3 b1bf 47eb cc3e
000000a0: aa2b 49bf e803 d8be e2fe 7dbf c70d e3be
000000b0: cae7 2ebf c26c 933f 7e5b 0a3e f0ab a6bc
000000c0: 9eea 4cbf 4831 a3be c4a1 4bbd 2f98 fc3e
000000d0: c207 db3e 4e24 f6be 2e0d 4a3e 2494 be3e
000000e0: 181c db3c 9c0b acbf 1c5b 113e 64dd 0140
000000f0: 5c82 033f 1592 bbbe 0647 293f 7cd1 97bf

fc_arrows.bias f4 [4]
-0.31730208 -0.41154101 -0.50206286 -0.2716714
00000000: 6b75 a2be 81b5 d2be 3187 00bf 8418 8bbe
